…
      "outputs": [
        {
          "name": "stdout",
          "output_type": "stream",
          "text": [
            "Model: \"model\"\n",
            "_________________________________________________________________\n",
            " Layer (type)                Output Shape              Param #   \n",
            "=================================================================\n",
            " input_1 (InputLayer)        [(None, 12)]              0         \n",
            "                                                                 \n",
            " dense (Dense)               (None, 128)               1664      \n",
            "                                                                 \n",
            " batch_normalization (Batch  (None, 128)               512       \n",
            " Normalization)                                                  \n",
            "                                                                 \n",
            " dropout (Dropout)           (None, 128)               0         \n",
            "                                                                 \n",
            " dense_1 (Dense)             (None, 64)                8256      \n",
            "                                                                 \n",
            " batch_normalization_1 (Bat  (None, 64)                256       \n",
            " chNormalization)                                                \n",
            "                                                                 \n",
            " dropout_1 (Dropout)         (None, 64)                0         \n",
            "                                                                 \n",
            " dense_2 (Dense)             (None, 32)                2080      \n",
            "                                                                 \n",
            " batch_normalization_2 (Bat  (None, 32)                128       \n",
            " chNormalization)                                                \n",
            "                                                                 \n",
            " dropout_2 (Dropout)         (None, 32)                0         \n",
            "                                                                 \n",
            " dense_3 (Dense)             (None, 1)                 33        \n",
            "                                                                 \n",
            "=================================================================\n",
            "Total params: 12929 (50.50 KB)\n",
            "Trainable params: 12481 (48.75 KB)\n",
            "Non-trainable params: 448 (1.75 KB)\n",
            "_________________________________________________________________\n"
…
      "outputs": [
        {
          "name": "stdout",
          "output_type": "stream",
          "text": [
            "Model: \"model_1\"\n",
            "_________________________________________________________________\n",
            " Layer (type)                Output Shape              Param #   \n",
            "=================================================================\n",
            " input_2 (InputLayer)        [(None, 12)]              0         \n",
            "                                                                 \n",
            " dense_4 (Dense)             (None, 256)               3328      \n",
            "                                                                 \n",
            " batch_normalization_3 (Bat  (None, 256)               1024      \n",
            " chNormalization)                                                \n",
            "                                                                 \n",
            " dropout_3 (Dropout)         (None, 256)               0         \n",
            "                                                                 \n",
            " dense_5 (Dense)             (None, 128)               32896     \n",
            "                                                                 \n",
            " batch_normalization_4 (Bat  (None, 128)               512       \n",
            " chNormalization)                                                \n",
            "                                                                 \n",
            " dropout_4 (Dropout)         (None, 128)               0         \n",
            "                                                                 \n",
            " dense_6 (Dense)             (None, 64)                8256      \n",
            "                                                                 \n",
            " batch_normalization_5 (Bat  (None, 64)                256       \n",
            " chNormalization)                                                \n",
            "                                                                 \n",
            " dropout_5 (Dropout)         (None, 64)                0         \n",
            "                                                                 \n",
            " dense_7 (Dense)             (None, 1)                 65        \n",
            "                                                                 \n",
            "=================================================================\n",
            "Total params: 46337 (181.00 KB)\n",
            "Trainable params: 45441 (177.50 KB)\n",
            "Non-trainable params: 896 (3.50 KB)\n",
            "_________________________________________________________________\n"
…
      "outputs": [
        {
          "name": "stdout",
          "output_type": "stream",
          "text": [
            "Model: \"model_2\"\n",
            "_________________________________________________________________\n",
            " Layer (type)                Output Shape              Param #   \n",
            "=================================================================\n",
            " input_3 (InputLayer)        [(None, 12, 1)]           0         \n",
            "                                                                 \n",
            " conv1d (Conv1D)             (None, 10, 64)            256       \n",
            "                                                                 \n",
            " batch_normalization_6 (Bat  (None, 10, 64)            256       \n",
            " chNormalization)                                                \n",
            "                                                                 \n",
            " dropout_6 (Dropout)         (None, 10, 64)            0         \n",
            "                                                                 \n",
            " conv1d_1 (Conv1D)           (None, 8, 32)             6176      \n",
            "                                                                 \n",
            " batch_normalization_7 (Bat  (None, 8, 32)             128       \n",
            " chNormalization)                                                \n",
            "                                                                 \n",
            " dropout_7 (Dropout)         (None, 8, 32)             0         \n",
            "                                                                 \n",
            " flatten (Flatten)           (None, 256)               0         \n",
            "                                                                 \n",
            " dense_8 (Dense)             (None, 64)                16448     \n",
            "                                                                 \n",
            " batch_normalization_8 (Bat  (None, 64)                256       \n",
            " chNormalization)                                                \n",
            "                                                                 \n",
            " dropout_8 (Dropout)         (None, 64)                0         \n",
            "                                                                 \n",
            " dense_9 (Dense)             (None, 1)                 65        \n",
            "                                                                 \n",
            "=================================================================\n",
            "Total params: 23585 (92.13 KB)\n",
            "Trainable params: 23265 (90.88 KB)\n",
            "Non-trainable params: 320 (1.25 KB)\n",
            "_________________________________________________________________\n"
…
      "outputs": [
        {
          "name": "stdout",
          "output_type": "stream",
          "text": [
            "Model: \"model_1\"\n",
            "_________________________________________________________________\n",
            " Layer (type)                Output Shape              Param #   \n",
            "=================================================================\n",
            " input_2 (InputLayer)        [(None, 12)]              0         \n",
            "                                                                 \n",
            " dense_4 (Dense)             (None, 256)               3328      \n",
            "                                                                 \n",
            " batch_normalization_3 (Bat  (None, 256)               1024      \n",
            " chNormalization)                                                \n",
            "                                                                 \n",
            " dropout_3 (Dropout)         (None, 256)               0         \n",
            "                                                                 \n",
            " dense_5 (Dense)             (None, 192)               49344     \n",
            "                                                                 \n",
            " batch_normalization_4 (Bat  (None, 192)               768       \n",
            " chNormalization)                                                \n",
            "                                                                 \n",
            " dropout_4 (Dropout)         (None, 192)               0         \n",
            "                                                                 \n",
            " dense_6 (Dense)             (None, 112)               21616     \n",
            "                                                                 \n",
            " batch_normalization_5 (Bat  (None, 112)               448       \n",
            " chNormalization)                                                \n",
            "                                                                 \n",
            " dropout_5 (Dropout)         (None, 112)               0         \n",
            "                                                                 \n",
            " dense_7 (Dense)             (None, 1)                 113       \n",
            "                                                                 \n",
            "=================================================================\n",
            "Total params: 76641 (299.38 KB)\n",
            "Trainable params: 75521 (295.00 KB)\n",
            "Non-trainable params: 1120 (4.38 KB)\n",
            "_________________________________________________________________\n"
…
